HW1/utils/kernel.npy (npy, 1152 bytes, 1 tensors)

array f8 [8, 1, 4, 4]
0	0x3fcc3e8200000000	0.2206575870513916
1	0x3fd2820b20000000	0.2891872227191925
2	0xbfddf59b00000000	-0.46811556816101074
3	0xbfdef86020000000	-0.48390963673591614
4	0x3fd3ad6be0000000	0.3074598014354706
5	0x3fd2723f20000000	0.2882230579853058
6	0xbfd70bfac0000000	-0.3601061701774597
7	0xbfd8a78220000000	-0.3852238953113556
8	0x3faff5dda0000000	0.06242268159985542
9	0x3fdb18fe00000000	0.4234004020690918
10	0x3fdf6a70a0000000	0.4908715784549713
11	0x3fc39b6100000000	0.15317928791046143
12	0xbfbab73580000000	-0.10435804724693298
13	0x3fce93de60000000	0.23888759315013885
14	0x3fd293d620000000	0.2902732193470001
15	0x3fcdcc2ee0000000	0.2327936738729477
16	0xbfd61c6c60000000	-0.34548482298851013
17	0xbfc937b3c0000000	-0.19701239466667175
18	0x3fd8526240000000	0.38002830743789673
19	0x3fc5ba8a60000000	0.1697552651166916
20	0x3fc1429640000000	0.134844571352005
21	0x3fca12bcc0000000	0.2036968171596527
22	0x3fd97025c0000000	0.3974699378013611
23	0xbfc87ab700000000	-0.1912449598312378
24	0x3f6214f960000000	0.002207266865298152
25	0x3fd265e6c0000000	0.2874695658683777
26	0x3f98562c00000000	0.02376621961593628
27	0xbfd2bbcb20000000	-0.29271200299263
28	0xbfc649e260000000	-0.17412976920604706
29	0x3fc1edd300000000	0.14007031917572021
30	0x3fb39c78c0000000	0.07660631835460663
31	0x3fc3d9f4e0000000	0.15508900582790375
32	0xbfd6d81920000000	-0.3569395840167999
33	0xbfcd2b4d40000000	-0.2278839647769928
34	0x3fcc4e4880000000	0.22113901376724243
35	0x3fdc9fb4a0000000	0.4472476541996002
36	0x3f7b5b8620000000	0.00667908089235425
37	0x3fd4844c40000000	0.3205748200416565
38	0x3fd7036720000000	0.35958269238471985
39	0x3fda8ba7e0000000	0.4147739112377167
40	0x3fc392ff00000000	0.15292346477508545
41	0x3fccf75bc0000000	0.22629877924919128
42	0x3fd6d89f00000000	0.35697150230407715
43	0xbfd2d89040000000	-0.2944679856300354
44	0x3fbaa77e00000000	0.1041182279586792
45	0x3fd33be440000000	0.30053049325942993
46	0xbfe22e5160000000	-0.5681540369987488
47	0xbfe7745c80000000	-0.7329542636871338
48	0x3fda731bc0000000	0.41327565908432007
49	0x3fd196a100000000	0.27481865882873535
50	0x3fb845a440000000	0.09481264650821686
51	0x3fd7200da0000000	0.36133137345314026
52	0x3fc46ec760000000	0.1596307009458542
53	0x3fb0adc1a0000000	0.06515131145715714
54	0xbfc633e240000000	-0.17345836758613586
55	0xbfe0e53120000000	-0.5279775261878967
56	0x3fab4a3d80000000	0.05330078303813934
57	0xbfd76fd860000000	-0.3662014901638031
58	0xbfea726340000000	-0.8264633417129517
59	0xbfc4537f60000000	-0.15879814326763153
60	0xbfe5ce8460000000	-0.6814596056938171
61	0xbfec6e86a0000000	-0.8884919285774231
62	0x3fb4dac0a0000000	0.08146289736032486
63	0x3fd5045260000000	0.3283887803554535
64	0x3fb8125ce0000000	0.09403019398450851
65	0x3fcfa8a080000000	0.2473335862159729
66	0x3fcec30160000000	0.24032609164714813
67	0xbfc3334780000000	-0.15000241994857788
68	0x3f9568b200000000	0.020907193422317505
69	0x3fc2ef4760000000	0.1479272097349167
70	0x3fcb668000000000	0.2140655517578125
71	0xbfbcf53fc0000000	-0.11311720311641693
72	0xbfa6cf1d20000000	-0.04454890266060829
73	0x3fd2415ae0000000	0.28523895144462585
74	0x3fd61f2500000000	0.34565091133117676
75	0xbfadccb440000000	-0.05820239335298538
76	0xbfda058940000000	-0.4065878987312317
77	0xbfc53d6c00000000	-0.16593694686889648
78	0x3fda5759c0000000	0.41158145666122437
79	0x3fd738dda0000000	0.3628458082675934
80	0xbfb4194460000000	-0.07851054519414902
81	0x3f827d7840000000	0.009028377011418343
82	0xbfdb1580c0000000	-0.4231874346733093
83	0xbfd7150fa0000000	-0.36066046357154846
84	0x3f86ba5360000000	0.011097575537860394
85	0x3fcb665f00000000	0.21406161785125732
86	0x3fd712d340000000	0.3605239987373352
87	0x3fda1ff500000000	0.4082005023956299
88	0x3fd2437480000000	0.28536713123321533
89	0x3fd10edf60000000	0.2665327489376068
90	0x3fc351a2e0000000	0.15092884004116058
91	0x3fd073c300000000	0.2570655345916748
92	0xbfd187a0a0000000	-0.2739030420780182
93	0xbfcf0c17e0000000	-0.24255655705928802
94	0xbfd316c580000000	-0.29826486110687256
95	0xbfccb81600000000	-0.22436785697937012
96	0xbfe1a912c0000000	-0.5518888235092163
97	0x3fc3881420000000	0.1525902897119522
98	0xbfc71d7d20000000	-0.18058742582798004
99	0x3f9c2f03c0000000	0.027523096650838852
100	0xbfcdffba40000000	-0.23436668515205383
101	0x3fd1df4a60000000	0.2792535722255707
102	0x3fd6dddb60000000	0.3572910726070404
103	0x3fd0477260000000	0.25436076521873474
104	0x3fca256ee0000000	0.20426736772060394
105	0x3fc8890200000000	0.1916811466217041
106	0x3fd8e1e700000000	0.38878798484802246
107	0x3fc5118260000000	0.16459684073925018
108	0x3fd1aec580000000	0.27629220485687256
109	0x3fcd92a500000000	0.23103773593902588
110	0x3fd778cd00000000	0.3667480945587158
111	0x3f8ebdd760000000	0.015010531060397625
112	0x3fc9b0a2c0000000	0.2007029950618744
113	0x3fd346a3c0000000	0.3011865019798279
114	0x3fc99b46e0000000	0.2000511735677719
115	0xbfacbfa320000000	-0.05614957585930824
116	0x3fbce4e8c0000000	0.11286787688732147
117	0x3fb5ae7ae0000000	0.08469360321760178
118	0xbfc6ca8c40000000	-0.1780562698841095
119	0x3fcacd2340000000	0.20938530564308167
120	0x3fc80d68c0000000	0.18790921568870544
121	0x3fd5b0f340000000	0.33892518281936646
122	0x3fd0a70d20000000	0.2601960003376007
123	0x3fd006dc80000000	0.2504187822341919
124	0x3fb77511e0000000	0.09163009375333786
125	0x3fd53bc140000000	0.3317721486091614
126	0x3fbbb761a0000000	0.1082669273018837
127	0xbfd20de980000000	-0.2820991277694702
